utils/resources/models/certification/smooth_vit/head_weight.npy (npy, 15488 bytes, 1 tensors)

array f4 [10, 384]
-0.06905807 -0.046059676 0.015148687 -0.011992731 0.0336587 -0.026782911 0.02476688 0.03637001
-0.006031518 -0.015066303 -0.062616535 -0.01993578 -0.039790947 -0.018421797 -0.058066897 -0.021469425
-0.03171483 -0.02818512 -0.0710418 0.0566114 -0.0635842 0.046321265 -0.07444232 -0.029972233
-0.017821308 0.033931028 -0.11060489 -0.019453775 -0.013600346 0.033517804 0.049989827 0.04250316
-0.015582021 0.015208081 0.058430523 0.019315157 -0.042624097 0.007993673 -0.024443392 0.018033938
-0.046205 -0.017954683 0.033394877 0.041545793 -0.023353241 -0.04725463 -0.033293 0.008041045
0.024376707 0.05726334 0.031588487 -0.07272465 -0.01686408 -0.005907259 -0.09294782 -0.007436597
0.05167508 0.041695006 -0.034227636 0.05787065 -0.038077213 -0.0075796763 0.025116565 0.06763859
-0.020933354 0.0763239 0.045730155 0.031919584 -0.00078485144 0.0036853452 -0.09607732 -0.010900267
0.0019393974 0.0028704372 0.030691113 0.08847399 0.034386307 0.008831943 -0.110381864 0.057489432
-0.027084058 0.021076482 -0.024312178 -0.033335697 0.00011845866 -0.05662493 0.021038895 -0.034213517
0.08025971 0.017747859 -0.040104378 -0.045415435 -0.0604252 -0.042392522 0.0666567 0.017236918
0.07105353 0.096525535 -0.014259988 0.06942106 0.008061283 0.04837346 -0.000285443 0.01277884
-0.06141639 0.0463009 0.03526476 -0.051192895 -0.02761579 0.04544077 0.046401743 0.015231014
-0.016306791 -0.04680815 0.04652361 -0.0072911414 0.06777362 0.027361896 -0.036749497 -0.06887697
0.028630985 -0.010274715 -0.033159204 0.044145256 0.08739099 0.032769747 -0.030432925 0.0022305495
0.04172955 -0.0077501466 -0.037564676 -0.027481731 -0.011144467 0.021710841 -0.033455636 0.01674359
0.018910782 -0.055378027 -0.0011626268 -0.027009625 -0.050250378 0.004132388 6.0910243e-05 0.07597439
-0.0004287208 0.018265855 0.00022214993 0.011537576 -0.035578094 -0.017737426 -0.064924926 -0.04164271
-0.008378736 -0.018393109 -0.09342047 0.06356521 0.057300348 -0.01071452 0.0133871725 -0.017856807
-0.0019158236 -0.0064170565 0.017603584 0.004518992 0.0552425 0.029064832 -0.032104854 0.008530338
0.07759544 0.0075281197 0.011722951 0.06238793 0.013687175 0.070054464 0.018109947 0.043541484
-0.03899357 -0.003237451 0.047465075 0.019329298 0.05487749 0.057206202 0.044031356 -0.0020991133
-0.008175394 -0.014140704 -0.005476133 0.037464425 -0.076294005 0.062194325 -0.0044100885 -0.007891818
-0.013763192 -0.04623602 -0.054551363 -0.024776718 -0.018283488 0.05040828 0.05920848 0.023286197
0.0060612606 0.021635383 0.07727154 -0.0053690015 -0.06783443 0.08504779 0.032696225 -0.076567896
0.023766063 -0.0010248717 -0.004289159 -0.044513073 0.05686263 0.034439597 -0.015646558 -0.025856145
0.07925238 0.0033914275 0.036032308 -0.012454976 -0.010854161 0.069255315 0.04789559 -0.046065122
0.00035892669 -0.014729598 -0.04038214 -0.010123609 0.0042220433 0.05785708 -0.0018314625 0.078772046
-0.017082086 0.020433204 0.049921308 -0.031692076 0.04871352 0.022430634 0.04249267 -0.050370634
-0.063538134 0.0060243695 -0.024683796 -0.010654786 0.0013127963 -0.049520526 0.040621694 -0.017473785
0.05690223 0.050003197 0.047467347 0.059394978 -0.012420234 0.027659815 -0.012938226 -0.008252088
00000000: 516e 8dbd 12a9 3cbd 3332 783c 297d 44bc
00000010: b4dd 093d d667 dbbc e9e3 ca3c b8f8 143d
00000020: 0aa4 c5bb a8d8 76bc 193d 80bd 5c50 a3bc
00000030: d5fb 22bd 4fe9 96bc 8ed7 6dbd a6e0 afbc
00000040: 69e7 01bd 7be4 e6bc 5d7e 91bd 5be1 673d
00000050: 6f38 82bd 5ebb 3d3d 3775 98bd 5488 f5bc
00000060: fefd 91bc 43fb 0a3d d184 e2bd 865d 9fbc
00000070: fcd3 5ebc f749 093d 22c2 4c3d cb17 2e3d
00000080: bc4b 7fbc 512b 793c d854 6f3d d23a 9e3c
00000090: 9b96 2ebd e5f7 023c 823d c8bc e9bb 933c
000000a0: 7441 3dbd b315 93bc 11c9 083d ec2b 2a3d
000000b0: 4c4f bfbc 128e 41bd 3e5e 08bd 96be 033c
000000c0: a9b1 c73c f78c 6a3d ee62 013d a9f0 94bd
000000d0: 8a26 8abc ae91 c1bb 6d5b bebd b2ae f3bb
000000e0: 40a9 533d 62c8 2a3d 4732 0cbd c609 6d3d
000000f0: daf6 1bbd ef5e f8bb 41c1 cd3c 1a86 8a3d
00000100: 6d7c abbc b44f 9c3d 8b4f 3b3d 1cbe 023d
00000110: 7dbe 4dba d585 713b 30c4 c4bd 0997 32bc
00000120: 6133 fe3a f21d 3c3b ee6b fb3c da31 b53d
00000130: a8d8 0c3d dbb3 103c e30f e2bd 0a7a 6b3d
00000140: 63df ddbc 96a8 ac3c 552a c7bc 038b 08bd
00000150: 026d f838 8bef 67bd c359 ac3c 7923 0cbd
00000160: 345f a43d f563 913c 7d44 24bd 8905 3abd
00000170: 6a80 77bd c8a3 2dbd 4f83 883d 7034 8d3c
00000180: 8384 913d 2eaf c53d baa2 69bc a12c 8e3d
00000190: 7913 043c 4023 463d 83a7 95b9 575e 513c
000001a0: c18f 7bbd 03a6 3d3d c871 103d a4af 51bd
000001b0: 823a e2bc 1a20 3a3d c10f 3e3d 818b 793c
000001c0: d295 85bc e7b9 3fbd 8a8f 3e3d 87ea eebb
000001d0: e5cc 8a3d 0e26 e03c a486 16bd 5e0f 8dbd
000001e0: 878b ea3c 4757 28bc f2d1 07bd a8d1 343d
000001f0: 0cfa b23d 9239 063d 784e f9bc 692e 123b
00000200: 9bec 2a3d f1f4 fdbb 6bdd 19bd 5e21 e1bc
00000210: 4897 36bc efda b13c c708 09bd da29 893c
00000220: c9ea 9a3c 12d4 62bd 4863 98ba 4a43 ddbc
00000230: 57d3 4dbd fc68 873b e079 7f38 7698 9b3d
00000240: efc5 e0b9 46a2 953c ebf0 6839 1a08 3d3c
00000250: 56ba 11bd 144e 91bc 5cf7 84bd 8c91 2abd
00000260: f746 09bc 25ad 96bc 3b53 bfbd 7a2e 823d
00000270: c5b3 6a3d f48b 2fbc df55 5b3c 7048 92bc
00000280: 5f1c fbba 2c46 d2bb 6435 903c 0d14 943b
00000290: f645 623d 5f19 ee3c 6180 03bd d5c2 0b3c
000002a0: 5cea 9e3d 72ae f63b 9f11 403c 7c8a 7f3d
000002b0: 2c40 603c b778 8f3d 505b 943c 8e58 323d
000002c0: b9b7 1fbd 6a2b 54bb bd6a 423d 7a58 9e3c
000002d0: 38c7 603d 0d51 6a3d 395a 343d 4791 09bb
000002e0: 16f2 05bc 69ae 67bc 2271 b3bb 4c74 193d
000002f0: 0840 9cbd 7abf 7e3d 8182 90bb af4c 01bc
00000300: 037f 61bc fb61 3dbd 4071 5fbd 8bf8 cabc
00000310: 41c7 95bc ea78 4e3d 9784 723d b2c2 be3c
00000320: 8a9d c63b b03c b13c 8b40 9e3d 73ee afbb
00000330: c7ec 8abd 892d ae3d 7aec 053d a1cf 9cbd
00000340: 0cb1 c23c fd54 86ba 138c 8cbb 5753 36bd
00000350: cae8 683d 8910 0d3d 362d 80bc 44d0 d3bc
00000360: 124f a23d b642 5e3b 9d96 133d f50f 4cbc
00000370: a7d5 31bc bbd5 8d3d 2b2e 443d c8ae 3cbd
00000380: 532e bc39 6954 71bc be67 25bd 7edd 25bc
00000390: 1159 8a3b 8cfb 6c3d af0d f0ba 3d53 a13d
000003a0: bbef 8bbc 8963 a73c 497a 4c3d 8dcf 01bd
000003b0: d487 473d 73c0 b73c cb0c 2e3d 7051 4ebd
000003c0: 4820 82bd 1368 c53b ac35 cabc 6991 2ebc
000003d0: 2212 ac3a 09d6 4abd ef62 263d 2f25 8fbc
000003e0: 5012 693d 27d0 4c3d 1f6d 423d 2648 733d
000003f0: 3d7e 4bbc d696 e23c dafa 53bc c433 07bc
